deeplearning/neural_receiver_model.pth (torch, 582612 bytes, 6 tensors)

fc1.weight f4 [128, 1064]
00000000: 1cca 403c ef0f b33b 80cd 36bb 4a5e 4dbc
00000010: 5e2d bc3c 8015 c43c 218e 193c a1d0 d3bc
00000020: 168a 003b fc57 87bc bd56 cebc 6cef 91bc
00000030: 6e6b 9bbc ee79 883c 09a0 9dbc b027 c4bc
00000040: 89ba d4bc 296f 5d3b 8e69 e0bb 8063 6b3c
00000050: 4abc 0b3c 90a8 09b9 7d6c 9c3b f230 683b
00000060: 36dd 0e3c bfc8 08bd 37ce 4e3a 187c 343c
00000070: cf2b babc 829c 4abc 9225 5f3c 2613 a73c
00000080: 94fb 7f3b d92b 953c 7ddc b5bb 8874 a0bc
00000090: ca69 a7bc 6e50 ebbb 7de7 ad3c 483c 8d3c
000000a0: ce80 583c 88d6 153c 3704 cbbc 1ebe 683c
000000b0: 2038 4b3c 80b8 c33c 1191 d1bc a979 913b
000000c0: fd0e 0fbd f69e be3c f225 15bc fd90 9e3b
000000d0: ae1b 0bbd 0127 6bbc 4fd0 f23a 03f5 fdbc
000000e0: 0eea a9bc a7fb 9abb c483 bcbb 67fb 6e3c
000000f0: a18e 6f3a caca e2bc 1969 12bd b76d d4bc
00000100: c5cd 593c 7cae eb3b c7e0 8ebc f774 c7bc
00000110: 700a 02bd 6a0b a33c c737 47ba db01 fdbc
00000120: 6599 c1bc 198c d93b f771 973c 7630 e1bc
00000130: 603a 933c eff3 debc 67f1 99bb 7646 203c
00000140: fcb8 843c 0499 aabc db6e 5abc 7936 bcbc
00000150: d70b fcbc ded3 e7bc a9c2 59bc a42f a4bc
00000160: 658a b5bc 909a b0bc fc67 793a 6259 e5ba
00000170: 1d70 c13c ca9e 18bc 2dca 8eba 0706 ec3b
00000180: 5732 12bd 60e2 3dbc d040 a7bc c3c9 f0bc
00000190: fdcd 8c3c 5213 1e3c 71e4 91bc b680 eebc
000001a0: ade2 e0bc 487c 8cbc bad8 a2bc 0216 863c
000001b0: 7028 9d3c 8f60 903c c721 13bd 1b85 95bc
000001c0: 7543 2ebc a2af c7bc a3df 673a 4d73 afbc
000001d0: 680d b13c 7480 c8bc 8870 7ebc d873 9c3c
000001e0: e400 a7bb 3a78 383c 5683 d1bc f993 0abc
000001f0: 831b 153c bd80 df3b 892a 063c 8405 46bc
00000200: 1fcb 523c 42a4 59bc d54b bfbc 50e3 1dbc
00000210: b61a 763c 3ccc 0abd f6f7 afba 3652 05bd
00000220: 7142 49b9 e8a7 4b3c 2292 96ba 57cf 9e3b
00000230: e43c 29ba 0e83 cdbc ac00 dc3b 9436 47bc
00000240: 19f0 c9bc 81e6 953c ad14 6e3b 1760 92bc
00000250: f10d 9e3c ae80 14bd ea2a c3bc e0f9 4cbc
00000260: 52e4 24bc 061b 8f3c 146b e3bc 6a89 b23b
00000270: 3933 82bc d754 a43c 53e9 1f3c 382d 50bc
00000280: 7ba4 d73b 76b8 7bbb 73e0 9f3c fd7c 933c
00000290: ceb2 9e3c de5f 6e3c dd6a 9e3c 0515 debc
000002a0: 6ed2 d8bc 9b7f b5bc 1ba1 58bb 084c 27bc
000002b0: be99 12bb 124b 0abc 6de4 3ebc 403a 9c3b
000002c0: d35d ffbc e050 86bc 327a 0dbc 65de c33c
000002d0: aa9f c6bc 90fe e4bc 8311 4dbc 434c 9bbc
000002e0: 8ace 7ebb 7b11 c2bc a844 69bc 29f4 4bbc
000002f0: 92ba babc 5b08 61bc 0d56 15bd 8df7 bbbb
00000300: 1b2d e6bb 4023 a4bc 88f2 3a3c 413e 7cbc
00000310: 1f9b c5bc fe9e 083c 4553 4abb 7154 e53b
00000320: 9b10 993b 9610 b53c 8ee7 8aba bfa7 0cbc
00000330: 0613 163c 70cf 5c3c 8bbe a13c 6bcc 393b
00000340: c2a3 bc3b 4233 32bc d1bb ad3c 4059 62bc
00000350: 4ee0 e0bc 65e0 e2bc 9319 adbc fe67 50bc
00000360: 9b06 703c c0e0 5ebc f748 273c 5246 68bb
00000370: 1dda 5f3c 24f2 81bc 0ca6 f53a 4957 13bd
00000380: 6b63 89bc 1165 083b ad8f f0bc 254e f7bc
00000390: 8004 26bc e051 3c3c 88fc 00bc 3d7b 05bc
000003a0: 7867 d1bc 34cd a9bc b376 563c d9e5 89bc
000003b0: c3fd 6dbc 6f82 0e3c 98ac 86bb 093c 9f3c
000003c0: b56a 753c 4e67 10bc 9953 9dbc 69f1 8eba
000003d0: c137 04bb ad5d 923c c2bb 9d3b 5e5a 2d3b
000003e0: 6e83 b4b9 b76e 55bc 0167 503c 084e c4bc
000003f0: 4627 0bbc a371 16bc 8187 103c 2fa9 44bb
0.011766937 0.005464546 -0.0027893484 -0.012534687 0.022970852 0.023936033 0.009372265 -0.025856318
0.0019613556 -0.016521446 -0.025187844 -0.01781436 -0.018972125 0.016659703 -0.01924135 -0.023944706
-0.025967853 0.003378818 -0.0068485206 0.014366984 0.008528778 -0.00013128133 0.004773675 0.0035429564
0.008719733 -0.03339457 0.0007889005 0.011015914 -0.022725968 -0.012366416 0.013619797 0.020394873
0.0039059864 0.018209385 -0.005549966 -0.019586816 -0.020436186 -0.007181219 0.021228546 0.017240658
0.013214303 0.0091453865 -0.024782283 0.014205484 0.012403518 0.023891687 -0.025581868 0.004439552
-0.034926403 0.023269158 -0.009103285 0.0048390613 -0.033961944 -0.014352561 0.0018525216 -0.03100062
-0.020741489 -0.0047297063 -0.0057530124 0.014586306 0.000913838 -0.027684588 -0.03574476 -0.025931222
0.013293688 0.007192431 -0.017441167 -0.024347765 -0.031748235 0.019902904 -0.0007599559 -0.030884674
-0.023632715 0.0066390154 0.01848696 -0.027488928 0.017972171 -0.027215926 -0.004697967 0.009782424
0.016201489 -0.020824917 -0.013332094 -0.022975193 -0.030767364 -0.028299268 -0.0132910395 -0.020042248
-0.022160718 -0.021558076 0.0009514091 -0.0017497952 0.02361303 -0.009315202 -0.0010893993 0.007202867
-0.03569254 -0.011589617 -0.020416647 -0.029393082 0.017188067 0.009648161 -0.017809125 -0.029114109
-0.027451837 -0.017149106 -0.019878734 0.016367916 0.019184321 0.017624168 -0.035920884 -0.018251946
-0.0106362 -0.02437574 0.0008845275 -0.021417284 0.021612838 -0.024475314 -0.015529759 0.019098207
-0.0050965417 0.011259133 -0.025575321 -0.008458131 0.009100798 0.0068207667 0.008188852 -0.012086276
0.012865811 -0.013283791 -0.02335159 -0.009636715 0.015021017 -0.03388618 -0.0013425339 -0.032549106
-0.00019193605 0.012430169 -0.0011487643 0.004846494 -0.0006455912 -0.025086906 0.0067139473 -0.0121590085
-0.02465062 0.01829839 0.0036328242 -0.017868085 0.019293757 -0.03625553 -0.023824174 -0.012510747
-0.010064201 0.01746894 -0.02776102 0.00544851 -0.015893565 0.020059986 0.009760219 -0.0127060935
0.006580887 -0.0038409508 0.019516205 0.018003935 0.01937237 0.014549224 0.019338066 -0.027109632
-0.026467528 -0.022155574 -0.003305501 -0.010210998 -0.002236947 -0.00844075 -0.011651141 0.004767686
-0.031172669 -0.016395986 -0.008635091 0.023909757 -0.024246056 -0.027953416 -0.012516382 -0.018957263
-0.003888043 -0.023689976 -0.01423756 -0.012448349 -0.022794042 -0.013734902 -0.036459018 -0.0057362975
-0.00702442 -0.02003634 0.011410363 -0.015395702 -0.024121819 0.008338688 -0.0030872386 0.0069985916
0.004671169 0.022102635 -0.0010597573 -0.008584916 0.009159809 0.013477191 0.019744178 0.0028350602
0.005756826 -0.010876479 0.021207722 -0.013815224 -0.027450707 -0.02769489 -0.021130359 -0.012720106
0.014650012 -0.013603389 0.010210267 -0.0035442305 0.013662842 -0.015862532 0.0018741502 -0.035971913
-0.016771039 0.0020812193 -0.029365385 -0.03018863 -0.010132909 0.01149413 -0.007872708 -0.008147058
-0.025562033 -0.020727731 0.013089824 -0.016833233 -0.014525834 0.00869809 -0.0041099302 0.019437807
0.014979054 -0.008813692 -0.019204902 -0.0010905686 -0.0020174833 0.017866934 0.0048136422 0.0026451568
-0.00034430198 -0.013026885 0.012719871 -0.02396299 -0.00849325 -0.009182367 0.008821369 -0.0030008068

fc1.bias f4 [128]
00000000: d8e6 f6bc 2abd 0abd 4d33 833b 7a48 ab3c
00000010: 1094 5d3c 9473 df3c 8371 ba3b 34d6 dfbc
00000020: 0e7a e6bc 1e55 ba3c aebf 08bd 64b9 04bd
00000030: 632e 3b3c 655a b8bb b037 df3b 8384 fdbc
00000040: 38c7 f2bc fd54 c13c 1a93 13bc 4a3c 7d3c
00000050: 0acc bd3b 0db5 2abc eb39 7abc bac3 b43c
00000060: fe2f c9bb 97fa 863b 4e81 b3bc 358a 92bc
00000070: b8bc 3e3b 6a6b 4c3c 33ec 87bc b58e b63c
00000080: 6523 063c da04 afbc ddb8 c03c 5361 99bb
00000090: 0823 99bb f890 343c 1add 253d 0e4e 8c3c
000000a0: a909 88ba 48e7 63bc a22b 56bc 7720 e3bb
000000b0: a1e6 293d f83d e4bc 5791 4abc d598 d0bb
000000c0: 6757 94bc b7f3 db3b 7b50 fdba 20a5 31bc
000000d0: 6b9f 0bbb a9ad 30bb 0eae de3c b29d 06bc
000000e0: 9e70 c53c 0a07 833c 8a71 223b 9f57 a0bc
000000f0: 3198 993c f5a4 073b e2f6 a4bc 8838 0dbd
00000100: ad05 dabc 4223 b9bc 7d31 a8bc c511 83bc
00000110: 7442 833c e075 4ebc 8e6d e23c 0b86 f2bb
00000120: ffff ffbc aff6 ccbc 50a1 fb3b 5033 9e3c
00000130: 3905 dfba 3f02 e5bb b196 de3b aeda eebc
00000140: 2dd7 06bd 683a cc3c d864 dbb9 60f7 f33c
00000150: d739 8f3c 6223 c23c 1228 1ebb 521b 553b
00000160: 6b8a 0abc efca c43c e1a8 3dbc b47e 673c
00000170: a134 efbc e44d 8cbc 8b3f 06bc edfb e4bc
00000180: 6625 e9bc 0a9e c13b 6251 943a 74d7 683c
00000190: 9c06 bd3c d87d 27bc 43e2 893c 6524 bb3c
000001a0: 37e0 db3c 163d 543c 9039 7dbc 991c 633c
000001b0: 5c51 7a3b 2a84 023d 8960 613c 1153 4c3c
000001c0: 37dc b03c cf02 b2bb 97b8 c43b 0d7e af3c
000001d0: c27c 8f3c 6398 173c 9d59 b03b 64da 3dba
000001e0: 618d 343c 8a7f 173b 9832 a5bb 06e3 f5bb
000001f0: 5547 89bc ee8c e13c fde6 8abc d812 efbc
-0.030139372 -0.033871807 0.0040039183 0.020908583 0.01352407 0.027276792 0.005689801 -0.02732382
-0.028134372 0.022745665 -0.033385925 -0.032403365 0.011424634 -0.0056260102 0.0068120584 -0.030946976
-0.02963601 0.023600096 -0.00900724 0.015456269 0.0057921456 -0.010419142 -0.015272598 0.022065986
-0.0061397543 0.004119228 -0.021912243 -0.017888168 0.0029104184 0.012476781 -0.01659212 0.022284845
0.00818715 -0.021364618 0.02352565 -0.0046807914 -0.0046733655 0.011020891 0.040494062 0.017127063
-0.0010378856 -0.013910122 -0.013071926 -0.0069313603 0.04147971 -0.02786158 -0.012363753 -0.0063658752
-0.018108083 0.0067124027 -0.0019326353 -0.0108425915 -0.0021304737 -0.0026958978 0.027182605 -0.008216308
0.024101552 0.015994567 0.0024786913 -0.019573031 0.018749328 0.0020697687 -0.020137254 -0.03447774
-0.026614035 -0.02259982 -0.02053141 -0.015999684 0.016022898 -0.012601346 0.02764013 -0.007401233
-0.031249998 -0.025019972 0.007679142 0.019311577 -0.0017015106 -0.006988793 0.006792866 -0.029157009
-0.03292005 0.024930194 -0.0004184607 0.029781044 0.017483635 0.023698512 -0.002413277 0.0032517505
-0.008455853 0.024022548 -0.011575908 0.0141293295 -0.0291999 -0.017126985 -0.008193861 -0.027952159
-0.028460216 0.0059087323 0.0011315758 0.014211524 0.02307444 -0.010222875 0.016831523 0.022844503
0.026840312 0.012954017 -0.0154556185 0.013861799 0.0038195467 0.031864323 0.013755926 0.012470976
0.021589382 -0.0054324637 0.00600345 0.02142241 0.017515544 0.00925264 0.0053817765 -0.00072423206
0.0110200355 0.002311679 -0.0050414316 -0.00750387 -0.016757647 0.02753302 -0.016955847 -0.02918379

fc2.weight f4 [64, 128]
00000000: 41e5 d8bc 71ff 62bd c017 98bd b0c1 683c
00000010: 6b10 b63c e5da 703d a10c 8dbc 2514 a03d
00000020: 009c 4ebc 80d9 483d ed33 a03d d98e 063d
00000030: 8b09 903c c2ad a8bd 8b77 3c3d ee67 2c3d
00000040: e467 0d36 db54 2bbd d65a f4b9 320c 843d
00000050: 4ba5 94bd 4cc3 99bd 37f8 a13c dd1c 86bd
00000060: 0b88 96bc 2041 95bc 94fc 5abc 819c aebc
00000070: 00ec d73a dfbd 58bd 2cfd ce3c 399f 593c
00000080: 400f 82bd 5341 793d d0bb 40bd 2f5d 9b3d
00000090: 3e4b 92bd 503b 36bd 412f 423d acbe 35bd
000000a0: b7d2 3a3d 68ef 1dbd 8bb9 3ebd b09d 81bb
000000b0: 5450 fdbc 5f89 913d 0bf6 97bd 010a 02bc
000000c0: 96e6 393d e219 09bd e751 883d 5f76 bdbd
000000d0: 83cd 9c3d c1e2 b83c bc06 3fbb 0229 73bd
000000e0: 33ca 613d a9ef 333d d070 73bd f26d 613d
000000f0: e02e 903d 7eb7 6f3d badb a1bb da56 2c3d
00000100: 62a5 82bd 28b7 2a3c dc21 c9bc ece0 f0bc
00000110: 22a6 70bd a2ab cfbd 4cbf 91bd 487d c6bc
00000120: 796b 9a3c b2a4 0dbd 760f 75bc 6007 d7bd
00000130: 9576 a03d 907f 3d3d bf6e bcbd 1598 7abd
00000140: 1918 71bd d825 a03d 7ecf 79bd 4272 463d
00000150: 0892 713d 8515 cebc 1d37 803d 1094 bbbd
00000160: a114 8fbd 782f 9f3d b05f f43c 67b7 8fbd
00000170: fa3a 15bd ed88 f2bb 95ca 8cbd 782f 9abb
00000180: 5641 40bc 8066 a8bd 82e7 9c3d 870b acbc
00000190: 3316 24bd d6b5 cc3c 1a0b 213d c1b3 353d
000001a0: 6e95 b739 bb4d 373d bbde 5eba 7281 8bbd
000001b0: 5ff7 6bbd fb09 d6bd d879 38bc 7f06 aabd
000001c0: 2e98 0e3c 5274 663d d684 fd3c f818 79bd
000001d0: 3226 26bd 9422 30ba 9b1f 1f3d 1fe6 38bd
000001e0: e696 96bd e004 8cbd a50a 4c3d de2f 743d
000001f0: 7fc8 1fbd f554 42bd 3aab 1bbd 6d81 9ebd
00000200: 1254 283d 473a b5bd 584a 003d 60df dc3c
00000210: c59d 8a3d c6e4 abbd 4ea5 a2bd a03e d33c
00000220: 9f91 003c 4e27 0a3d ec58 47bd 29f7 4c3d
00000230: 268c 163d cc7d 23bd 373c 06bd 46a9 753d
00000240: 1cf0 203d e846 21bd 4d65 11bd f807 a1bd
00000250: 8f4e 85bd a043 83bd 01c3 053d 7ccc 10bd
00000260: d762 c7bc 6aae 25bc d37c 0e3d edc7 1ebd
00000270: 6a79 50bd 277f 783d 1a0c 94bd ff55 a43d
00000280: a85a 8dbd 2e6a 7b3d 7571 183d 3820 2bbc
00000290: c8d7 c23c 9b13 d1bb d002 fb3b 848c 1fbd
000002a0: 1ca0 b3bd c342 77b9 ca3a 5fbc 0c48 2ebb
000002b0: 3959 ca3a 34aa c53c 7f38 a7bc a657 80bd
000002c0: 8f59 25bd 44b9 bfbd 47ef 6f3d 9dc3 27bd
000002d0: 3653 ff3c a0a3 7f3d 75dd a9bd 613a 9d3d
000002e0: 6ba6 7d3d f725 bc3c 54ef babd cad9 7bbd
000002f0: 6ae3 b1bc 56b9 613d d456 623d c302 913d
00000300: b471 8dbd 1ad1 023c 9f27 8ebd d310 903d
00000310: 985c 703d 759c 65bd 1c35 9fbc ccd0 8b3d
00000320: 84fd 0e3c 2eb0 99bd a6d1 6c3d a921 d73c
00000330: 1118 59bc 6fd0 433d 32f2 2b3d 853a 133c
00000340: 71e1 e6bc aafc 6c3d f95b ed3c c3e5 23bd
00000350: acb5 85bd 9202 75bd 9c5a 03bd 6ddd 54bd
00000360: 26e2 ffbc f45f 353b c6d7 5fbd 0699 12bc
00000370: 937b 7bbd 3f98 77bd 4867 883d 6500 65bd
00000380: 8bb8 d13b d36c 353d 0f7c 0e3d 9258 4d3d
00000390: bddc b2bd da67 33bd 1322 a0bd 37fe c53b
000003a0: 7b2a f0bc db58 2f3b db7e 9a3b 8f1d 99bd
000003b0: ba4c 7d3d af8c 563c 89c7 20bd b235 6f3d
000003c0: 2df8 8dbc 5593 ed3c 0a5b 073d 6fb5 913c
000003d0: d111 763c 32a7 003d a723 853d 8648 8a3d
000003e0: e6cf 8c3d 784d b2bd cbdd 19bd 3d09 da3c
000003f0: 26e3 88bb 7044 293d 8b74 49bc 89b8 24bd
-0.026476504 -0.05541939 -0.07426405 0.014206335 0.022224626 0.058802504 -0.017217936 0.07816342
-0.0126104355 0.04903555 0.07822404 0.032851074 0.017582675 -0.08236267 0.046012443 0.042091303
2.107111e-06 -0.04182897 -0.00046606985 0.064476386 -0.0725809 -0.07507953 0.019771678 -0.06548474
-0.018375417 -0.01821953 -0.013365883 -0.021314861 0.0016473532 -0.05291545 0.025267206 0.013282591
-0.06350565 0.060853314 -0.047054112 0.07586133 -0.071432576 -0.04449016 0.047408346 -0.044371292
0.04561111 -0.038558394 -0.046563666 -0.0039555654 -0.030922092 0.071062796 -0.07419976 -0.007936955
0.04538592 -0.03347195 0.06656247 -0.09251093 0.07656386 0.022569062 -0.00291483 -0.05936528
0.055124473 0.04392973 -0.05943376 0.055036493 0.07040191 0.0585246 -0.0049395235 0.042075016
-0.063792005 0.010419644 -0.024552278 -0.029404126 -0.058752187 -0.10140158 -0.07116565 -0.02422966
0.018850075 -0.034580894 -0.014957299 -0.104994535 0.07835118 0.04626423 -0.09200811 -0.061180193
-0.058860872 0.07819718 -0.060988896 0.04844881 0.058977157 -0.025156746 0.06260512 -0.091591
-0.069863565 0.07772726 0.029830784 -0.07017403 -0.036433198 -0.0074015767 -0.06874577 -0.0047053657
-0.011734327 -0.08222675 0.07661344 -0.02100159 -0.040060233 0.02498905 0.039317228 0.04436088
0.00035015814 0.044751864 -0.00085018174 -0.06811799 -0.05760896 -0.104511224 -0.011259519 -0.0830202
0.008703275 0.056263275 0.03094713 -0.060814828 -0.04056377 -0.000671902 0.0388485 -0.045141336
-0.07353 -0.06836867 0.04981484 0.059615962 -0.039009567 -0.047444303 -0.03800509 -0.0773953
0.0410958 -0.08849006 0.0313209 0.026961982 0.067683734 -0.083932444 -0.079416856 0.025786698
0.007847219 0.03372889 -0.048668787 0.050040398 0.03675475 -0.03991489 -0.03277227 0.059975885
0.039291486 -0.039374262 -0.035497 -0.07862848 -0.065091245 -0.06409383 0.032656673 -0.03535126
-0.024339123 -0.010112384 0.03478701 -0.038764883 -0.05089704 0.060668137 -0.07228871 0.08024215
-0.06902057 0.061380558 0.037217576 -0.010444693 0.023784533 -0.006380511 0.0076602474 -0.038952366
-0.08770773 -0.00023580626 -0.013624856 -0.0026593236 0.0015437967 0.02412901 -0.020412682 -0.062667176
-0.040368613 -0.093615085 0.058577802 -0.040958036 0.031167608 0.062411904 -0.08294193 0.076771505
0.061926287 0.022967322 -0.091276795 -0.061486997 -0.021714885 0.05510839 0.055258587 0.07080605
-0.06906453 0.007984424 -0.06941151 0.07034459 0.058682054 -0.056057412 -0.019434504 0.06826934
0.008727435 -0.07504307 0.057817124 0.026261168 -0.013250367 0.0478062 0.041979022 0.00898612
-0.02818367 0.057858147 0.02897452 -0.04001404 -0.06528792 -0.059816904 -0.032068834 -0.05196898
-0.031235766 0.00276756 -0.054649137 -0.008947616 -0.061397146 -0.060447928 0.06660324 -0.05590858
0.006400173 0.044293236 0.03478628 0.050133295 -0.08733509 -0.043800212 -0.07818999 0.0060422677
-0.029317131 0.0026755843 0.0047148294 -0.07476341 0.06184075 0.013095065 -0.03925279 0.058400817
-0.017330253 0.029000917 0.033045806 0.01778671 0.015018896 0.03140945 0.06500941 0.06752114
0.06875591 -0.08706182 -0.037565034 0.026615733 -0.004177469 0.041325033 -0.012295852 -0.04021505

fc2.bias f4 [64]
00000000: fa8f 9c3d e609 9b3d 27a6 27bd 3ab3 873d
00000010: e8c4 d1bd e559 8abb 8d15 e6bc 0a19 b33d
00000020: eccd 1abd 826e d0bb a7a9 15bc 9c1f 70bd
00000030: 7050 9dbd 7c76 9d3d 884a e23c 456d 823c
00000040: c1b2 333d b84f efbd 0ba4 08bd df37 d8bc
00000050: 1d80 f1b9 a2a6 e1b9 dcc1 bcbd 71ef 74bc
00000060: 659f 17bd 9347 c43a 79ed 6c3d 8b95 8e3d
00000070: db04 f93d a7fb d83c f3f2 34bd 5824 85bd
00000080: fcbe cb3c 26e7 0e3d a46b 253c 6702 d4bd
00000090: 6582 6c3d dfc6 16bd 83a0 893d 555e f03d
000000a0: 76fb 87bd 63a3 1dbd b8cb 413d 4157 8bbd
000000b0: f727 f03d febf 7bbd 67cd ae38 6801 d03d
000000c0: 09d7 b9bc b465 4ebc 0509 fc3d 0431 4ebd
000000d0: ca1b 7cbd 2799 8a3d 0110 323d 1df4 8dbd
000000e0: b2ce 00bd 8635 a73d c358 bcbd 9c42 89bc
000000f0: eef8 5bbc 1331 8bbd 0cdb 9c3c 09cb 92bc
0.07644649 0.07570247 -0.04092994 0.06625982 -0.10242635 -0.004222142 -0.028086448 0.0874501
-0.03779404 -0.00636083 -0.009134687 -0.058623895 -0.07681358 0.07688615 0.02762343 0.015921244
0.043871645 -0.11685127 -0.03335957 -0.026393829 -0.00046062554 -0.00043039495 -0.09216663 -0.014949665
-0.037017245 0.0014974944 0.05784366 0.06962117 0.12159129 0.026487185 -0.044177007 -0.06501073
0.024871342 0.03488841 0.010096464 -0.10352021 0.05774154 -0.036810752 0.06720068 0.117367424
-0.06639759 -0.038485896 0.047313422 -0.06803752 0.11726373 -0.061462395 8.335226e-05 0.10156518
-0.022685545 -0.01259749 0.12306408 -0.050339714 -0.06154994 0.06767493 0.043472294 -0.069313265
-0.03144712 0.08164506 -0.091966175 -0.016755395 -0.013426049 -0.067964695 0.019147418 -0.01791908

fc3.weight f4 [6, 64]
00000000: 99b9 7ebc e042 e43d a8d1 60bd bda6 9fbd
00000010: b4cf 663d e818 993d 5547 933d 86c8 313d
00000020: 74a1 0f3d 0920 5c3d d54e f73d b53e 93bd
00000030: 8764 323d 04fb fe3d 82dd cf3d e2f0 493c
00000040: cf10 acbd 267a 12bd 751f 8d3d eb78 51bd
00000050: a735 c93d 1738 53bd e8bf 7f3d c8ea a4bd
00000060: 2de5 c43d 5360 6dbd b2b2 17bd c701 fd3c
00000070: 433b 903d d151 dd3d 2734 9d3c 6c10 cb3d
00000080: 8556 a83d 6a0a e33d 0cef aebc efde bb3c
00000090: 6970 073d d63d 6dbd 622a 2dbd aa46 943d
000000a0: 078e 643c a052 033d b188 a1bd 991a 72bd
000000b0: a56e a03d 0b37 adbd d5c9 573d 0d79 ffba
000000c0: 3d98 bb3c a943 d5bd f66b 753c ca17 d1bd
000000d0: f486 bfbd 2d16 b9bb 94c0 aebd 4839 55bd
000000e0: bb3d 25bc 96d7 c93d 81ee 163c 40a9 c93d
000000f0: 7674 ddbd 329c 973d c518 5b3d 1277 5c3d
00000100: 68cb 4ebd 6f33 73bd aef3 cc3d 8980 e33d
00000110: 843c d1bd 9290 a8bd 9eeb c1bd 635a 9dbd
00000120: cff5 a83c 3220 373c d9c4 373d 85ff a53c
00000130: 2e34 123d 73fd edbd b814 90bd 616c ee3c
00000140: c007 e4bd acbf a1bd 93f9 0f3d 8ab4 073e
00000150: 36fa 903d 8d7a 4e3d 5a3c e33c 2087 10bc
00000160: a1e2 3bbd fac5 923b 7468 903d aae4 5e3d
00000170: 9eb4 d53c ce02 edbc ca81 0a3d ea8f f1bc
00000180: 708a f83d 1d8b 073e 0c86 50bd 6ba8 673d
00000190: e9d1 433d 6777 c6bd cb22 f7bc 06c0 e5bb
000001a0: f060 123d 322a 9fbc a4b8 9bbd 70cf 113d
000001b0: 7498 e8bc 18ac b63c 8e28 54bd d46b ef3d
000001c0: 1ac0 7d3d 87c6 483d db40 12bd 3aba e4bc
000001d0: d040 76bd 632e d0bd c1fc c23d 492a a53d
000001e0: e05f 853d 71bb af3d 3627 acbd 60a3 303d
000001f0: 8636 c8bd 8016 c43d 85b8 ccbd e0d7 82bd
00000200: c499 ae3c 126a c9bd 8ec6 583d 4356 cdbd
00000210: 9f79 0fbd 9d98 77bd 1fac e13d 0e6e f73d
00000220: f4d3 c63c 4f9f c3bb 3f38 fe3d 970d 2c3d
00000230: 345d d0bd 0247 97bd 5084 973c 8ca6 233d
00000240: e63d 2ebc 2c92 1f3d 2a99 2c3d bc14 143d
00000250: 31ca d23c 0541 b13d 24a7 b13d d5ce 7cbc
00000260: 6cbc 11bd 8ae3 fe3d 6158 b33d 73db babd
00000270: 0750 833d 04fd c73c 2f24 cfba bdaf 8bbd
00000280: da93 f03d 447d 8e3d c3e4 c1bd c89d f2bb
00000290: 9f25 4bbb 07f1 bf3d f2b0 1e3c 52c3 65bd
000002a0: 06b4 c4bb d5a7 81bd ba80 b5bc 4f16 1bbd
000002b0: eab9 b13d ffa5 953d e328 c43d 20b4 c13d
000002c0: 9137 a2bc be68 e63c 7e10 973d 8bdf dc3d
000002d0: 96fe 2dbd 327a 73bd 5e27 53bd 0252 d7bd
000002e0: 34f2 c1bd 349d be3d 68a0 533d 8092 473d
000002f0: d79e 9abd 830b c13c e244 8ebd f39c 263d
00000300: 8f1d c53c 1b8a 57bc 8638 a6bd a159 acbc
00000310: 6fc9 eebc 69de a93d 4057 eb3d a91c 0a3d
00000320: 36c1 3fbc 33b2 a8bc 2735 ca3c ff2a 533d
00000330: df87 63bd 85b6 923b 25b8 9dbd 83da 0fbd
00000340: e8d5 87bc 38bf a73d 4052 e73c 6d09 533c
00000350: 668a 03bd e6eb 4f3d db18 c23d 71af 9e3d
00000360: b30a 51bd 8d35 cabd 5e07 bbbd 1ab1 743d
00000370: 6f92 c13d aeb8 863d cae1 d33c 44a7 7a3d
00000380: 6f02 a5bc bc13 b1bd ed7f a8bd 1e65 bdbc
00000390: dee3 b43c f7ff 0b3d 68b0 cfbc 69a4 453d
000003a0: c239 d13d bf1c e43b 0d97 20bd 8ea9 8cbc
000003b0: d77e be3d ed08 41bd 38da b13d 160d e43d
000003c0: 0ea1 8b3d 5cc5 9e3d 23c6 8c3d 4bcf db3d
000003d0: f4fc 033b 212a b03b 2b8e d4bd 95e8 bc3d
000003e0: 4286 bdbd 07f6 96bd 26cb b93d ba4f 863d
000003f0: 0280 0e3d caba 24bc 233f 4fbd 5de6 9a3d
-0.01554718 0.11145568 -0.054887444 -0.07795475 0.056350425 0.074754536 0.0719134 0.043404125
0.035066083 0.05374149 0.12075583 -0.07189695 0.0435529 0.12450221 0.10149671 0.012325497
-0.084016435 -0.03576102 0.068907656 -0.051140707 0.098246865 -0.051567163 0.062438875 -0.080525935
0.09614024 -0.05795319 -0.03703565 0.030884637 0.07042553 0.10806621 0.019189907 0.099152416
0.08219627 0.11085971 -0.02135422 0.022933451 0.033066187 -0.0579203 -0.042276748 0.072400406
0.013949878 0.03206122 -0.078874 -0.059107397 0.07833604 -0.08457764 0.052682716 -0.0019491032
0.022899741 -0.10413296 0.014979353 -0.102096155 -0.09351912 -0.0056483955 -0.08532825 -0.05205658
-0.0100855185 0.09855573 0.009212137 0.09846735 -0.10813229 0.07402839 0.05349042 0.05382449
-0.050486952 -0.059375223 0.10007416 0.111085005 -0.102166206 -0.082306996 -0.094687685 -0.076832555
0.020625023 0.01117711 0.044865463 0.020263443 0.035694294 -0.11620607 -0.07035202 0.029104413
-0.11134291 -0.07897887 0.035150122 0.13252464 0.07078974 0.050409842 0.027738739 -0.008821279
-0.045870427 0.004479167 0.07051173 0.05441729 0.026087102 -0.028932001 0.033815183 -0.029487569
0.1213578 0.13236661 -0.050909087 0.0565571 0.047807608 -0.09690743 -0.030167958 -0.0070114164
0.035736978 -0.0194293 -0.07603577 0.03559822 -0.028393008 0.022298858 -0.05179649 0.116904885
0.06195078 0.049017455 -0.035706382 -0.027920831 -0.060120404 -0.101650976 0.09520865 0.08064706
0.06512427 0.085806735 -0.084059164 0.043124557 -0.097760245 0.09574604 -0.09996132 -0.06388831
0.021313556 -0.098346844 0.05292373 -0.10026219 -0.035028096 -0.060448278 0.110191576 0.12081538
0.024270989 -0.005969919 0.12413072 0.042005148 -0.10174027 -0.073865905 0.018495709 0.039953753
-0.010634875 0.03895776 0.042138256 0.036152586 0.025731178 0.086549796 0.08674458 -0.015430172
-0.035580084 0.124457434 0.08757091 -0.09123888 0.064117484 0.02441264 -0.001580363 -0.06820629
0.117469504 0.06957486 -0.09467461 -0.007404063 -0.0030997766 0.09372144 0.009685742 -0.056094475
-0.006002906 -0.063308395 -0.022156108 -0.037863072 0.086780384 0.07307052 0.09578111 0.09458184
-0.019801887 0.028126117 0.073761925 0.10784825 -0.04247912 -0.059442706 -0.051551215 -0.105136886
-0.09470025 0.09307328 0.051666647 0.048723698 -0.075498275 0.02356506 -0.06946732 0.040677022
0.024061946 -0.0131554855 -0.0811625 -0.021038832 -0.029148785 0.082943745 0.11491251 0.03371874
-0.01170378 -0.020592785 0.024683548 0.051554676 -0.0555495 0.0044773244 -0.077011384 -0.0351205
-0.01658149 0.08190769 0.028237462 0.012880665 -0.03211441 0.05076208 0.09477397 0.077483065
-0.051035594 -0.09873495 -0.091322646 0.05973921 0.09451758 0.065781936 0.0258645 0.061194673
-0.020142762 -0.08646342 -0.08227525 -0.023119505 0.022081312 0.034179654 -0.025352672 0.048252497
0.102160946 0.0069614346 -0.039206553 -0.017170694 0.093015365 -0.047127653 0.086842 0.111353084
0.06817828 0.07752487 0.06873729 0.10732897 0.0020139785 0.005376116 -0.10378679 0.09224049
-0.09254123 -0.07371145 0.090719506 0.065581754 0.034790047 -0.0100543 -0.05059732 0.075634696

fc3.bias f4 [6]
00000000: 1de3 0a3e 5786 aa3d db43 b1bc 24e8 303e
00000010: 6219 863d 3d38 833d
0.135632 0.083264045 -0.021638801 0.17276055 0.0654781 0.06407211
